ModelHealth_Predict&Rec/model3.tflite (tflite, 38712 bytes, 6 tensors)

arith.constant f4 [4, 64]
000000 1d 3c 4c bf 0c a9 1c be 8b 56 a0 bd 53 c4 c3 be
       -0.79779226 -0.15298861 -0.07829007 -0.3823572
000010 d2 de a2 be 53 29 54 3e 58 c3 39 3e 93 a5 6a 3e
       -0.31810623 0.20718889 0.18140924 0.22914724
000020 4f 35 2a 3e 6b b3 bb 3e 03 4c f3 3d c0 fb c0 be
       0.16621898 0.36660323 0.118797325 -0.3769207
000030 ba c6 be bd 59 32 e6 bd 99 51 d5 be 04 d2 6e bf
       -0.09315248 -0.11240072 -0.41663817 -0.9328921
000040 cb 25 b8 be 0c d7 3f be df 93 01 bf 01 f6 81 bf
       -0.35966334 -0.18734378 -0.5061626 -1.01532
000050 49 e5 2e be 0f ce 4c bf 4c b1 38 be 45 de 45 bf
       -0.17079653 -0.8000192 -0.18036383 -0.7729228
000060 80 4a 0e bf ce 64 af 3e 97 50 e6 be dd 37 59 3e
       -0.5558243 0.34256595 -0.4498336 0.21212716
000070 92 76 1d 3e c3 ba c0 3d 74 5d 34 3e 24 f4 21 3e
       0.15377262 0.09410622 0.17613775 0.15815789
000080 20 3d 83 3e c2 66 ea bc 0a 5a 3d 3e 26 11 86 be
       0.25632572 -0.028613452 0.18491378 -0.26184958
000090 0d f9 29 bf db ce b1 3d 30 a1 e5 be 28 ff 77 3e
       -0.66395646 0.08682033 -0.4484954 0.24218428
0000a0 1c 34 aa 3a 1d da 06 3e 4b 71 51 bf 79 20 63 bf
       0.00129855 0.13169141 -0.81813496 -0.88721424
0000b0 65 5f 16 3e 99 f8 aa be 89 ea a2 3d 02 b5 b4 3c
       0.14684828 -0.3339279 0.0795489 0.022058968
0000c0 c9 3e 95 bf ba 2c b5 be de 08 85 be 93 0d 0f 3e
       -1.1659786 -0.35385686 -0.25983328 0.13970022
0000d0 88 d2 16 be bb 6e b5 3e 17 f6 f7 bd ca 39 30 bf
       -0.14728749 0.35436043 -0.12107485 -0.6883818
0000e0 d5 27 0e 3f 40 8b 4c 3e 3b b3 0f be 45 17 5f be
       0.5552953 0.19974995 -0.14033215 -0.2178622
0000f0 27 87 00 bc e7 03 26 3e 75 12 ab be 34 6e ae be
       -0.007844723 0.16212426 -0.3341252 -0.34068453
000100 49 01 a1 bf 9b 15 bd bd 08 1c 33 bd 0d 50 dd bd
       -1.2578517 -0.092326365 -0.043727905 -0.10806284
000110 44 23 9c be 7d 98 43 bf 6a 18 48 bf ae 09 9b be
       -0.30495656 -0.76404554 -0.7816225 -0.30280823
000120 16 7b 03 3e 9e 37 46 bf 05 9e 69 3e 40 1a cd 3d
       0.12839922 -0.77428615 0.22814186 0.100147724
000130 ad b1 77 3d 4c 3e 80 bf 1d 34 0c 3d 18 86 5b 3e
       0.06047218 -1.0019011 0.034229387 0.21437871
000140 b1 6e 9d 3d 9c e1 cf 3e b4 6b a7 be 7a b6 88 3d
       0.07687128 0.40601814 -0.32699358 0.0667543
000150 5f 07 4e bf 76 92 e7 3d df 3b 6c be dd db 7d bd
       -0.8048 0.11307232 -0.23069714 -0.061977256
000160 21 06 a0 bf 1d 8f 8a bf 18 1f df be 1c 37 f2 bd
       -1.250187 -1.0824925 -0.4357841 -0.118269175
000170 82 56 9e 3e 8b 23 2f bf af e7 2f bf 65 03 48 bf
       0.30925375 -0.6841361 -0.68712896 -0.7813018
000180 f6 46 58 3e 71 70 89 3e b0 62 85 bf ff ed 83 be
       0.2112082 0.26843598 -1.0420742 -0.25767514
000190 e3 2c 23 be 21 b4 41 3e 58 b9 d0 be 6a ba 1e be
       -0.15935092 0.1891637 -0.40766406 -0.15500799
0001a0 38 e1 90 be cc 05 d8 be 29 3e 10 bf 9a 1e bd 3d
       -0.28296828 -0.42191923 -0.5634485 0.092343524
0001b0 61 ff a3 bf a3 f3 15 3d 97 10 04 3e be a1 b2 be
       -1.281231 0.036609303 0.12896954 -0.34889024
0001c0 6f 7c 98 3e 7d 2f a9 bf 64 45 44 bf 40 a2 4e bf
       0.29782435 -1.3217617 -0.7666838 -0.80716324
0001d0 3f f1 b6 be 92 67 66 bf 1c 87 b2 be 5e 30 69 bf
       -0.3573093 -0.90001786 -0.34868705 -0.9108943
0001e0 f0 f0 bb bf cc a6 67 3e 4f d0 7c 3e e5 2e 5d bf
       -1.4682903 0.22622222 0.24688838 -0.8639968
0001f0 ef 0f 77 3c 30 53 85 bf 63 87 28 3e fa f6 a4 3e
       0.015079482 -1.0416012 0.16457896 0.32219678
000200 12 2c c7 3e f5 d0 03 bf 4e fe 9b bf c0 a2 53 3e
       0.3890081 -0.5149072 -1.2186983 0.20667553
000210 ab c3 01 be a9 ad 07 bd da d7 ee be 37 20 e5 3b
       -0.12672298 -0.0331246 -0.46649057 0.0069923657
000220 20 03 2b 3e c2 3f 5f be b2 00 31 be 2f 3f 3a 3e
       0.16700411 -0.21801665 -0.17285421 0.18188165
000230 c8 f7 39 be 50 0f 8a 3c e7 19 3c 3e b0 d7 74 3e
       -0.18160927 0.016853005 0.18369256 0.23910403
000240 a9 f2 38 bf 13 89 4b bf bf b7 54 3e 83 5c 19 3e
       -0.7224527 -0.79506034 0.20773219 0.14976697
000250 a9 26 18 3d 7d d1 9a 3b d2 f2 e7 bd 49 3a c8 3d
       0.037146244 0.00472468 -0.11325611 0.09776742
000260 56 d7 ab 3e 60 8d b5 be f3 3d a0 be b3 73 a1 bd
       0.33562726 -0.35459423 -0.31297264 -0.07883396
000270 af 39 5d bf cb 84 2f ba 2a 18 e0 be b0 7e 05 bf
       -0.86416143 -0.0006695508 -0.43768436 -0.52146435
000280 de c6 5c bf b7 9d 83 be c1 b2 82 be 6c 77 c0 3c
       -0.8624095 -0.25706264 -0.25527003 0.023494445
000290 32 22 5a bd dd fd a4 3d e5 83 42 be 8b 01 0a be
       -0.053255267 0.08056233 -0.18995626 -0.13477151
0002a0 c8 ef 21 3e 04 01 df be 6d 70 d1 3d d6 31 83 3e
       0.15814126 -0.43555462 0.10226522 0.2562396
0002b0 79 9a 8e be 29 4c 5d 3e a0 4c 91 bf ca 05 ca 3d
       -0.27852228 0.21611084 -1.1351509 0.098643854
0002c0 3d 41 b2 3d d1 f0 54 3e e4 0d 5e 3e 06 bb 75 be
       0.087038495 0.20794989 0.21684986 -0.23997125
0002d0 b1 ec 99 bd 0a 26 20 bf db cf 0f bf d2 61 9f be
       -0.075158484 -0.62558043 -0.5617654 -0.31129318
0002e0 73 02 4a bf 26 ed 00 3e ab da 2c bd e7 f4 53 bd
       -0.7890999 0.12590465 -0.042200726 -0.05174723
0002f0 9d 0d 8d bd 69 c1 90 bf 63 c4 3c 3d 32 91 8d bf
       -0.06887362 -1.1309024 0.046085726 -1.1059935
000300 de 75 29 be c3 92 8d 3e 29 c9 3b be 9e c0 39 3e
       -0.16548869 0.27651033 -0.18338455 0.18139884
000310 36 cd 4c 3e dd 65 2f 3e 44 4c d6 3d 81 1a 63 bd
       0.20000157 0.17128702 0.10463765 -0.055445198
000320 e8 c8 00 3e 11 e5 5a be a3 2a 67 be 16 f8 33 3e
       0.1257664 -0.21376444 -0.22574858 0.17575106
000330 fd f7 2f be b8 93 4b 3e 09 16 02 3e 7d 30 0b 3e
       -0.17184444 0.19880569 0.12703718 0.13592716
000340 1e af 92 bd e9 65 af 3c 00 e8 42 3e a2 b1 c6 3d
       -0.07162307 0.0214109 0.19033813 0.097018495
000350 db c3 a4 3e 83 2c 20 bd cf 56 58 be 17 d8 9b 3d
       0.32180676 -0.03910495 -0.21126865 0.07609575
000360 45 0d c8 be f0 87 89 3e 73 a6 15 3d ec 1f a8 bd
       -0.39072624 0.26861525 0.03653569 -0.082092136
000370 30 b8 1a 3e 20 df 8c 3e 31 d7 db 3d ce 92 34 3e
       0.15109324 0.2751398 0.10734404 0.17634127
000380 12 53 9d 3e 8c af eb bd bc 80 96 3d 33 76 13 be
       0.3072744 -0.11508092 0.07348773 -0.14400558
000390 03 49 90 bd 7c bc 2a be 2b ef 25 be 9b 4a 61 be
       -0.07045176 -0.16673464 -0.16204517 -0.22001116
0003a0 91 75 22 be 6a 23 08 3e 29 77 55 3e 5f a6 6f 3e
       -0.1586516 0.1329476 0.20846237 0.2340331
0003b0 48 d2 27 3e 22 e3 1e 3e 06 68 07 bd e4 7d d1 bd
       0.1638881 0.15516332 -0.03305819 -0.1022909
0003c0 cf 48 a0 be 50 85 99 3e 2c c5 39 3e f0 d0 3c 3e
       -0.3130555 0.29984522 0.18141621 0.18439078
0003d0 1d 4f 16 3e e2 de cd be 4f df 14 3f be 6a df 3e
       0.14678617 -0.4020911 0.5815324 0.43636125
0003e0 0b 79 7a be f4 9a 2c 3e d2 66 41 be 27 f7 67 bd
       -0.24460237 0.16855985 -0.18886879 -0.056632187
0003f0 5b 20 3e be 5b 83 e3 3c 95 77 06 3e a2 a8 ec 3d
       -0.1856703 0.027772596 0.13131554 0.11555602

arith.constant1 f4 [64, 128]
000000 94 45 f0 38 7d c1 48 bf d3 48 3a 3e dc 45 90 3d
       0.00011457052 -0.7842024 0.18191843 0.070445746
000010 2f b1 96 be 81 31 df bd 5f a9 96 bc f1 b6 d7 3e
       -0.29432055 -0.10898114 -0.01839131 0.4213176
000020 a7 f0 95 3e 73 cb dd 3b 94 fb 05 3d fb c4 5e 3e
       0.29285166 0.006768638 0.032710627 0.2175483
000030 85 dd 25 3c 02 07 83 be 39 ac 3b be 03 3d ba be
       0.010123615 -0.25591284 -0.18327416 -0.36374673
000040 40 65 67 be 81 c7 6e 3d 35 3a 83 bd 70 ea 14 3d
       -0.22597218 0.05829573 -0.064075865 0.03635639
000050 bf 27 8d bd d0 a7 56 3b ad 4f 34 be 87 bb 28 3e
       -0.068923466 0.0032753833 -0.17608519 0.16477786
000060 47 58 c3 bd a6 7a 3d be 2b a8 e4 be bc 73 ba be
       -0.09538322 -0.18503818 -0.44659552 -0.36416423
000070 ae 24 e3 bd a9 ba 90 be a7 f1 e2 be 40 02 58 3e
       -0.110909805 -0.2826741 -0.4432499 0.21094608
000080 bb 24 96 be 39 a9 50 bb 7d d1 b9 be 07 04 ce bb
       -0.29324898 -0.0031839146 -0.3629264 -0.006287101
000090 ec dd 59 be 10 c4 12 bf 0b 92 ed be d3 34 46 bf
       -0.21276063 -0.5733042 -0.46400484 -0.77424353
0000a0 82 72 85 3d a4 0f c3 be f2 78 1b be c0 a5 94 3d
       0.06515981 -0.3809787 -0.15182856 0.07258177
0000b0 6b 7b 0b 3e 0f 86 11 bf 5a 87 8f be b3 ae 0e be
       0.13621299 -0.5684518 -0.28032953 -0.1393383
0000c0 25 37 58 3e 25 59 d2 be e5 22 a5 bd 54 21 c8 be
       0.21114786 -0.41083637 -0.08063296 -0.39087927
0000d0 42 7d 52 3e 77 37 98 be af 03 83 bd d2 58 4d be
       0.20555595 -0.29729816 -0.06397187 -0.20053414
0000e0 c9 6b 82 bd 94 12 03 be 3d 16 c7 be b7 8e 98 bd
       -0.06368215 -0.12800056 -0.38884154 -0.07449096
0000f0 6c 10 21 bf d6 d6 c3 3d a1 4b 55 bd c5 d7 a3 3d
       -0.6291568 0.09562461 -0.05207408 0.08000139
000100 0b e7 1e bf 32 cc 3a be 76 a5 34 be d9 a5 3e 3e
       -0.62071294 -0.18241957 -0.17641243 0.18617953
000110 2f 99 19 bd 67 72 69 3e 8c bc be be 7f bb 23 3d
       -0.037499603 0.22797547 -0.37253225 0.039973732
000120 b1 eb a3 ba a4 63 03 3d 73 45 9b be 87 25 af be
       -0.0012506155 0.032077447 -0.30326423 -0.3420832
000130 99 a9 0e be 8b 60 0f bf 57 d3 ef bd 0a 05 83 be
       -0.13931884 -0.5600669 -0.11710232 -0.25589782
000140 9e 06 c7 be 8b 7d 8f 3d 96 5c a2 bd c7 03 b1 bc
       -0.38872236 0.07006367 -0.079278156 -0.021608246
000150 90 b3 8f 3d ac 46 21 be 5e d0 46 3e d2 86 8c be
       0.07016671 -0.15749615 0.19415423 -0.2744661
000160 60 50 11 be 58 be 51 be 76 9a a0 be 05 31 17 bd
       -0.14190817 -0.20482767 -0.31367844 -0.036911983
000170 bb a7 13 bf b4 e8 e1 bc 3b bc 8e bd d4 22 27 bf
       -0.5767781 -0.027576782 -0.06969496 -0.6528752
000180 6d c3 87 3e 2a e2 47 3d 4f b6 8f be ab cc 1d be
       0.26516286 0.04879967 -0.28068778 -0.15410106
000190 dd ef da be 01 8e 97 be b7 40 f3 be 7d 19 65 be
       -0.42761126 -0.29600528 -0.4751031 -0.22373004
0001a0 d9 0b 72 be ce b5 f4 3d bc ce 85 be d4 1e 02 bf
       -0.23637332 0.11948739 -0.26134288 -0.5082829
0001b0 1d a1 7d be 96 d4 53 be fe a3 ff be ed 37 34 3c
       -0.24768491 -0.20686564 -0.49929804 0.010999662
0001c0 b0 32 bd be d6 31 a9 3c d8 b2 fe be 4b 39 97 be
       -0.36952734 0.020653646 -0.49745822 -0.295359
0001d0 ce 25 92 3d d8 94 1a be 2a 22 08 bf 3f d6 d0 be
       0.07136117 -0.15095842 -0.5317713 -0.40788457
0001e0 09 37 fc be 94 8e 36 3d 21 21 30 be bf d7 45 3d
       -0.49260738 0.044569567 -0.17200138 0.048301455
0001f0 81 b6 cd be 4e df e1 be e8 ac e4 be 09 12 eb be
       -0.40178302 -0.4411568 -0.44663167 -0.45912197
000200 b8 d9 cd 3e c7 9b 3f 3e 6b f9 2c 3d 55 80 3c be
       0.4020517 0.18711768 0.04223005 -0.1840833
000210 3a 08 da 3d f1 fc c9 bd 66 83 f9 bd 4e 98 0d 3e
       0.106461 -0.09862698 -0.121832654 0.13827631
000220 42 8c 86 3d f8 08 cd bd 0d 9b aa 3e 00 80 49 3e
       0.06569721 -0.10011476 0.3332142 0.19677734
000230 55 50 89 3c cc 59 83 3e 75 99 41 3e b6 7a 0e 3f
       0.016761938 0.25654447 0.18906195 0.5565599
000240 cc 1b 23 be 54 61 86 be f8 9e 6c be 6f a0 84 3e
       -0.15928572 -0.2624613 -0.23107517 0.2590365
000250 69 79 2a 3e 2f 2d 9a 3c 73 26 04 3e 34 90 99 3e
       0.16647877 0.018820373 0.12905292 0.2999283
000260 ee e0 14 3d fa 44 b9 3d b8 aa 95 ba 1f 1c 29 3e
       0.036347322 0.09046359 -0.0011418676 0.16514634
000270 34 72 81 3e e4 5c 77 3e 37 bf b0 3d b1 78 b3 3e
       0.25282443 0.24156529 0.08630221 0.35053018
000280 d4 63 ab bd 13 00 ad 3d b9 28 23 be 9f 40 3d 3e
       -0.0836865 0.0844728 -0.15933503 0.18481682
000290 7f 2d e1 3d b5 b4 1c 3d 99 f0 96 ba f9 b9 12 3e
       0.10995006 0.038258273 -0.0011515795 0.14328755
0002a0 0e b7 be bc f4 d9 ff bc 6b 6d 37 3e 86 eb 59 ba
       -0.023280647 -0.031231858 0.17912833 -0.0008312989
0002b0 a2 de 5f be ac a8 ea 3e 94 67 b9 3e a8 11 82 bd
       -0.21862271 0.4583181 0.36211836 -0.06351024
0002c0 43 64 7c 3d 35 af 9f 3d 1d f1 91 3e d8 9c d8 3e
       0.061619055 0.0779709 0.28504267 0.42307162
0002d0 02 31 94 3d a2 1e c6 3d a2 ac 27 be c8 5a 63 3f
       0.0723591 0.096738115 -0.16374448 0.88810396
0002e0 3e cd 0e 3d ee c1 a1 3e 81 a8 89 3e ae 6a df 3e
       0.034863703 0.3159327 0.2688637 0.43636078
0002f0 1b 37 b5 be ef 5b ee bd 17 a5 a7 3d c6 cd 46 3f
       -0.35393605 -0.11638629 0.08185785 0.77657735
000300 d8 bd ee bc d9 7f 31 be 60 06 9b 3e da 66 2d 3e
       -0.029143259 -0.17333926 0.302783 0.16933766
000310 11 7b 90 3e 82 42 76 bd 3b 21 09 3f aa 57 5c be
       0.28218892 -0.06012202 0.5356633 -0.21517816
000320 0f 87 02 3f 0e b1 28 3d af f7 9b 3e 41 95 72 bc
       0.50987333 0.041184478 0.30462405 -0.014806093
000330 55 1f 4f bd 5d ec 4b 3d 75 2e ca bd 02 5a de 3e
       -0.05056699 0.04978596 -0.09872142 0.43428046
000340 dd 9d f0 3d b2 83 15 3f 12 53 14 3f 0d 04 56 3f
       0.1174886 0.58404076 0.57939255 0.8359993
000350 5f 06 4b 3d 12 e0 99 3e 46 9f f9 bc 26 b5 df bd
       0.049566623 0.30053765 -0.030471455 -0.10923223
000360 0a 7f f1 bd 64 d2 b2 bc c2 b2 0f 3e 00 7c da 3e
       -0.11791809 -0.021828838 0.14033034 0.4267273
000370 ce cd bb bc 51 a8 fa 3d ad 14 c4 3e 97 fe 14 3f
       -0.022925284 0.12239135 0.38297024 0.58200973
000380 80 25 9f bd 2b c8 a6 bd 8f 8e e8 bd 7b a5 01 3e
       -0.077708244 -0.08143648 -0.11355316 0.12660782
000390 40 ea 02 3f 26 0b 5b 3e 25 c6 a8 3d 3e 1b f2 3e
       0.5113869 0.21390972 0.08240918 0.4728641
0003a0 cf a5 03 3f 97 80 e3 3e a5 de 4d 3e 11 ca da 3d
       0.5142488 0.44434044 0.20104463 0.10683072
0003b0 b1 8e 8d bd 82 21 b1 3d 51 cb 12 3e 9d a9 06 3f
       -0.06911982 0.08648969 0.14335372 0.5260256
0003c0 2e a3 7d 3c 35 a8 30 3f 86 01 55 3e 03 0f 4f 3e
       0.0154808 0.69006664 0.20801362 0.2022057
0003d0 4c ea ca 3d 97 bd 33 bd 8b 7b 3f bd d1 97 e9 3e
       0.0990797 -0.04388198 -0.04674868 0.4562364
0003e0 7b 48 59 3e 3d db 50 be 95 11 a3 3e eb 10 7a bb
       0.21219055 -0.20396133 0.31849352 -0.0038157057
0003f0 40 42 25 be 5a 3c a2 3e ee a8 8a 3d 0b 05 87 bd
       -0.16138554 0.3168667 0.06770502 -0.06592759

arith.constant2 f4 [4]
000000 9a 2d ce bd 2c 89 79 3e 2c 29 24 3e 58 60 52 be
       -0.100672916 0.24368733 0.16031331 -0.20544565

arith.constant3 f4 [64]
000000 06 67 81 3e 93 c7 16 be 6b ec 4f 3e fb 3d f2 bd
       0.25273913 -0.14724569 0.2030503 -0.11828228
000010 67 ed 3f be 24 1b 20 be e5 65 42 be d4 93 98 bd
       -0.18742906 -0.15635353 -0.18984182 -0.07450071
000020 16 ad ec bd 16 d5 0f 3e 7e 66 88 bd b3 f9 28 bb
       -0.11556451 0.1404613 -0.06660174 -0.0025783598
000030 ea 5a 45 bd 7f 59 a6 bd 61 f4 cc 3a 59 7e 3a 3e
       -0.048182406 -0.08122539 0.0015636795 0.1821226
000040 1e de 56 b9 1a 58 31 3e 8e 0a 7a bd 93 7c 11 3e
       -0.00020491375 0.17318764 -0.061045222 0.14207678
000050 12 6a d2 bd 5e 00 08 3e f6 03 91 bd d3 a0 d1 3d
       -0.102741376 0.1328139 -0.070808336 0.10235753
000060 ca 34 6c 3e 60 00 50 be 1d 7e c6 bd 17 7b 8c bd
       0.23067012 -0.20312643 -0.09692023 -0.06859415
000070 53 32 ef 3d 49 71 28 be b6 26 78 be 37 63 32 be
       0.116795205 -0.16449465 -0.24233517 -0.1742066
000080 af 3f 60 3d 0c ed 75 bd b3 ab 18 be ab 6c dc bd
       0.054748233 -0.06004052 -0.14909248 -0.10762914
000090 d9 6f 27 ba e4 de 8b bd 3a 8b 1b be 63 27 34 bd
       -0.0006387211 -0.068296224 -0.1518983 -0.043982875
0000a0 ca 8e 71 bd 6a 2f 48 be 15 6b e6 bd 6b 99 a1 3d
       -0.058974065 -0.19549337 -0.11250893 0.0789059
0000b0 dd 7d 51 be 78 bc 4a 3b 6a ce 00 3e f0 4a 2b bc
       -0.2045817 0.003093509 0.1257874 -0.010454878
0000c0 d5 84 4d 3e 80 4b f8 bd 55 aa 2d bd 52 88 78 be
       0.20070203 -0.121237755 -0.04239877 -0.24270752
0000d0 2c f3 1b be 4b 40 6a 3d dd ea 98 bd b9 94 10 be
       -0.15229481 0.05719022 -0.074666716 -0.14119233
0000e0 b2 e6 12 3e 47 b8 82 bd 25 83 c5 bd 1d 29 02 be
       0.14345816 -0.06382804 -0.096441545 -0.12710996
0000f0 77 cc d1 3c 83 c4 e0 bd 41 17 a2 b9 f8 94 5a 3e
       0.025610192 -0.10974982 -0.00030916373 0.2134589

sequential_1_1/dense_3_1/Add/ReadVariableOp f4 [128]
000000 46 dd 64 be 95 88 97 be 4d 9d 92 bd af 70 01 be
       -0.22350034 -0.2959639 -0.07158909 -0.12640642
000010 ca ee b3 3c c8 88 20 3d 7d 1a e9 3c a4 cf c5 3d
       0.02196445 0.039192945 0.028455013 0.09658745
000020 e4 87 cf bc 29 a1 a3 bd d6 72 ca bd 8b 80 23 be
       -0.025333352 -0.07989723 -0.098851845 -0.15967004
000030 7f ac 12 be 00 64 0b 3d 86 1c 5a 3d 97 06 2f 3e
       -0.14323615 0.034030914 0.05324986 0.17092358
000040 8e 80 57 bd a0 3f a7 bd 3a 2a af 3b c7 c6 38 be
       -0.052612834 -0.081664324 0.00534561 -0.18044578
000050 49 5d 29 be 96 62 af 3b 2c b9 ed bd d5 ac 0e be
       -0.16539492 0.0053523285 -0.11607584 -0.13933118
000060 14 e5 02 bd 9a 28 54 3d df 97 31 3e 5a 6e a8 bd
       -0.031956747 0.051796533 0.1734309 -0.08224173
000070 d2 c4 4f 3a b1 f5 51 be 0f ca 14 3e 78 b1 1f be
       0.0007925752 -0.2050388 0.14530204 -0.15595043
000080 e1 55 56 be 30 da 9e bc c4 56 83 be 56 64 17 3e
       -0.20931198 -0.01939115 -0.25652134 0.14784369
000090 37 ca 47 ba 24 a5 6b bd a8 3f 01 be 3b 65 e3 3c
       -0.000762138 -0.057530537 -0.12621939 0.027758231
0000a0 fc ce f4 bb 9c d3 5a be 69 69 d9 3d b0 af 12 be
       -0.0074709635 -0.21369785 0.106158085 -0.14324832
0000b0 bb 23 98 bd 3d c4 43 be 9f e8 77 3d 74 79 7d 3d
       -0.0742869 -0.19117828 0.06052458 0.061883405
0000c0 58 f4 76 3d 9d 89 10 be 26 87 07 be 89 07 39 3d
       0.060291618 -0.14114995 -0.13235149 0.0451732
0000d0 6e 55 18 3d d7 e7 ec 3b bd 03 55 be 57 22 c8 3d
       0.037190847 0.007229786 -0.20802207 0.09772175
0000e0 60 43 07 be c8 07 a5 3d 4b 70 d9 3d c6 aa 70 3e
       -0.13209295 0.08058125 0.10617121 0.23502645
0000f0 05 39 4e be 56 32 31 3c fd 0e 91 bd 59 7a 29 3d
       -0.20138939 0.010815224 -0.07082937 0.041376445
000100 69 95 58 3d 06 7c 6c be 77 c9 69 bd 7d 57 88 3b
       0.052876864 -0.23094186 -0.057076897 0.00416082
000110 98 41 9e bd b8 7e 7b be a7 8e 35 3e a4 5c b2 bd
       -0.07727355 -0.24560058 0.17730199 -0.08709076
000120 9e cd 38 be 77 90 73 3d a3 13 7f bc ac 34 cc 3c
       -0.18047187 0.059463944 -0.015568647 0.02492746
000130 2a 79 49 3d 98 2f 65 3d ab 59 a5 3d 58 62 28 3e
       0.049187817 0.055953592 0.080737434 0.16443765
000140 1c 55 20 bd de 2d ce bc 3f 30 dd bd 1a 00 1f 3d
       -0.039143667 -0.025168356 -0.10800218 0.038818456
000150 f4 25 16 be 92 21 95 bd 6c 0e a7 bd 6a db e4 3d
       -0.14662915 -0.07281794 -0.08157048 0.111746624
000160 e5 b9 24 be 37 fa 35 bb 1d d6 8b 3c 0a 6b 0c 3e
       -0.16086538 -0.0027767548 0.01706987 0.13712707
000170 e4 52 6f 3e a3 90 7c be 09 fa cb bd a7 27 4e 3e
       0.23371464 -0.2466455 -0.099598 0.20132314
000180 ac f6 73 3c ee fc ba 3d 72 32 3a 3d 43 cd e2 3c
       0.014890354 0.09130274 0.045458265 0.027685767
000190 66 7d 07 3e 60 43 0d 3c 10 ee af bc 64 d0 d2 3d
       0.1323143 0.0086220205 -0.021475822 0.102936536
0001a0 d4 21 d3 bd f0 92 f5 bd c1 cc ba 3c 65 5d 2b bd
       -0.103091866 -0.11990917 0.022802712 -0.041837115
0001b0 cd 2a 48 be be b3 12 bc 9e 69 dd bd 52 c0 cf bc
       -0.19547577 -0.008953987 -0.108111605 -0.02536026
0001c0 c3 ce e6 bd e9 f3 36 be 8a fb 15 be 07 aa 40 bd
       -0.112699054 -0.17866482 -0.14646736 -0.04703715
0001d0 f0 20 a0 bd b5 a6 3d 3d e3 59 1b be 49 13 92 3d
       -0.07818782 0.046301562 -0.15171008 0.071325846
0001e0 c0 72 77 3d 02 01 a7 bd 0a 1f 55 bc 94 04 3e be
       0.06041217 -0.08154489 -0.013007889 -0.18556434
0001f0 1f 1c 89 be 5d 78 c7 3d c7 4e 1c be a7 e4 e2 bc
       -0.26779267 0.09739754 -0.15264426 -0.02769692

sequential_1_1/dense_3_1/MatMul f4 [128, 4]
000000 bc fe bb be 80 d6 60 bd c7 cd dd 3c 5f 2e 59 3e
       -0.36717784 -0.054892063 0.027075661 0.21209095
000010 0c 71 6a 3e 70 b2 d6 3e a3 59 16 3e 18 be 15 3d
       0.22894686 0.41933012 0.14682631 0.03655824
000020 2c 93 19 bd a9 84 1b bd 89 50 0a bc 27 6f da 3e
       -0.03749387 -0.03796831 -0.008442053 0.42662928
000030 b2 2d df 3e 3a 3d 20 3f 47 7e f4 3d 36 53 60 3e
       0.4358955 0.62593424 0.11938148 0.21906742
000040 98 a5 eb 3e 2b b2 d2 be ce b5 e3 3c 41 59 47 be
       0.46024776 -0.41151556 0.027796652 -0.19467641
000050 25 9c fd be 0d 50 c8 bd 48 03 fd 3c 4b 58 10 be
       -0.4953319 -0.097808935 0.030885354 -0.14096181
000060 e0 89 30 bf 78 c5 bb bd 67 47 d2 3a ba f3 24 be
       -0.6896038 -0.091685236 0.0016043008 -0.161086
000070 86 fa de 3d d7 2b ad be 3d 40 06 bf df 82 47 3d
       0.10887627 -0.3382251 -0.5244177 0.048708793
000080 99 5c 29 3d 63 1e 63 be 8d cc a7 be 50 25 04 3e
       0.041348074 -0.2217956 -0.32773247 0.12904859
000090 d6 26 8e 3d 12 f7 1a 3d c6 dc a7 3c 92 41 aa bd
       0.06941001 0.03783328 0.020491015 -0.08313288
0000a0 64 7e a6 be c2 ca 58 be c5 4e 0d bf b4 ae 07 bd
       -0.32518303 -0.21171096 -0.5519832 -0.033125594
0000b0 ae f5 eb bd 4b ce 67 be 33 34 e0 3c 78 9e 88 3e
       -0.11521469 -0.22637288 0.02736864 0.26683402
0000c0 3e cd 69 3e 4a 19 9e be f3 d5 9a bc 14 6b ca 3e
       0.228322 -0.3087867 -0.018900847 0.3953482
0000d0 56 17 f6 3e ea f5 bb be 7d 7c 8f 3b 88 48 83 be
       0.4806468 -0.36711055 0.004378854 -0.25641274
0000e0 fb 06 c0 be ed 83 5d 3d 0d dc 25 be dc 1a 11 3d
       -0.37505326 0.054080892 -0.16197224 0.035426006
0000f0 2f 8b 96 3e 7c bd 61 3d 6c 0b a4 3d 8a c6 9e be
       0.29403064 0.055112347 0.08009991 -0.31010848
000100 e0 31 00 bf a7 1b ec 3d 15 88 b1 bd 51 92 5e 3d
       -0.50076103 0.11528712 -0.08668534 0.054338757
000110 57 9b f1 3e f2 34 0b 3f 86 e2 ec 3d 82 94 2d 3e
       0.47188827 0.54377663 0.115666434 0.16951182
000120 b9 2f 9f be d7 64 4a be 93 54 8e 3d d9 0e 57 bf
       -0.31091097 -0.1976503 0.06949725 -0.8400703
000130 47 67 bf 3e 15 36 19 bf 42 f5 21 bc 8a 71 08 3c
       0.37383482 -0.5984815 -0.009885134 0.008327851
000140 de 6f 72 3d e8 92 bf be 06 da a8 bc 5d 86 ce 3d
       0.059188716 -0.37416768 -0.020611774 0.100842215
000150 bd 10 87 be 73 5e 6c be ab 25 88 3d 4f 09 0a bf
       -0.26379958 -0.23082905 0.066478096 -0.53920454
000160 93 85 af 3e 5f 84 04 bf 23 4a 69 3c f9 09 c3 bd
       0.34281597 -0.5176448 0.014238867 -0.095233865
000170 bb f6 7d be b8 f5 99 be 05 e4 10 bf ab ff 1c b9
       -0.24801151 -0.3007028 -0.5659793 -0.00014972563
000180 a8 dd 1d 3d 24 45 05 3c e3 2e 0c 3c 4e cd fa 3e
       0.038541466 0.00813416 0.008556101 0.4898476
000190 62 05 0c bf 1e d1 09 be 81 36 97 be c8 7f c7 bd
       -0.54695714 -0.13458678 -0.2953377 -0.09741169
0001a0 51 dd f5 be 14 26 02 3d 1b ba ca bd 2a 2e 0a 3d
       -0.48020414 0.031774595 -0.09898778 0.03373543
0001b0 1c d4 f7 be da e3 bd 3e f4 0f 3b 3c a4 9c 86 3d
       -0.48404014 0.370879 0.011417378 0.065728456
0001c0 e5 de 0a be 24 5b 22 bf f2 bf 3d bd 20 c2 03 3e
       -0.1356159 -0.6342032 -0.04632563 0.12867022
0001d0 e8 15 4e 3e fb a7 d1 be 97 0b 75 bc a4 b7 f3 3d
       0.20125544 -0.4094847 -0.0149563765 0.11900261
0001e0 ff 23 f1 3d 78 d7 fe be c0 d0 55 3c fd f5 40 bd
       0.11774444 -0.49773765 0.013050258 -0.047109593
0001f0 4b 48 8f bd 1f 54 62 be 04 29 a6 3c a3 01 06 3e
       -0.06996211 -0.22102402 0.02028323 0.13086562
000200 14 3a 63 3e b5 cf 91 3e 9d 28 13 3e e1 a5 91 3d
       0.22190124 0.2847878 0.14370961 0.07111717
000210 db 2c 67 be 05 a4 41 3e 90 8c 5c bb 36 ab a9 3e
       -0.22575705 0.18910225 -0.0033653118 0.33138436
000220 03 76 72 3e 88 cc b0 3e 81 5a 0f 3e 71 bc 18 3d
       0.2367783 0.34531045 0.13999368 0.037289087
000230 b3 c2 72 3e 91 38 b0 be c4 41 b0 bc f4 85 af bd
       0.23707084 -0.34418157 -0.021515734 -0.085704714
000240 dd f5 ca 3e 5d 2c e2 bd d2 34 bd 3d 40 e6 3b be
       0.39640704 -0.11043618 0.0923859 -0.18349552
000250 55 58 b4 be f4 c4 0e be 6e 99 4a bc a7 05 ec 3d
       -0.35223642 -0.13942319 -0.012365682 0.115245156
000260 bc 25 82 3e 1a 9c d0 3e 89 1b f3 3d 3f 9d f5 bd
       0.25419414 0.40744096 0.11870486 -0.11992883
000270 92 9a ce bd b3 99 2b be 2b 0e 51 3e a5 73 c8 3d
       -0.10088076 -0.1675785 0.20415561 0.097876824
000280 d9 fe d0 bd c4 58 f6 3d 05 c3 16 bc ce 3f 70 3e
       -0.10204858 0.120286494 -0.00920177 0.2346184
000290 da 4e b3 3e 12 39 07 3e ae 99 5d 3e a1 9c e4 3d
       0.35021096 0.13205364 0.21640655 0.11162687
0002a0 93 21 15 3e 03 2d 4f 3e 7c ee 85 3c fc ed b2 be
       0.14563589 0.20232014 0.01634907 -0.34947193
0002b0 8c 4b c6 3e 80 81 de 3e 5c 22 d3 3d 2a e7 68 3e
       0.38729513 0.43458176 0.10309288 0.22744432
0002c0 60 93 c5 bd 67 1d 4c 3d b1 40 0a bc 58 44 02 3f
       -0.0964725 0.049832728 -0.008438275 0.50885534
0002d0 0f 85 84 be 05 27 61 3e 6c 43 ec 3c 80 f6 1e 3e
       -0.25882766 0.21987541 0.028840743 0.1552372
0002e0 9f 03 c1 be 19 e9 e1 3e 23 ed e3 3c 8d 34 16 be
       -0.37698075 0.44123152 0.027823037 -0.14668484
0002f0 44 e3 12 3d 37 0b 0e 3d 57 d8 08 bf 08 3d 21 3d
       0.03586127 0.034678664 -0.5345511 0.039364845
000300 2f 68 b5 3d 0d 80 88 be 50 d2 f1 be c6 24 70 3d
       0.08857762 -0.26660195 -0.47230768 0.05862882
000310 74 42 4d 3e 51 a7 d5 3e a3 63 08 3e cc ba 0c be
       0.20044881 0.41729215 0.13319258 -0.13743132
000320 fc fc ad be 4b b2 9e bd e9 75 b9 be bb 32 4d 3d
       -0.33982074 -0.077488504 -0.3622277 0.05009721
000330 ea 8f c3 3e f8 ab 89 be 6a 52 06 bc 27 c6 85 be
       0.38195735 -0.26889014 -0.00819836 -0.2612774
000340 64 59 10 be de e7 02 be f3 5a fe be 03 e1 ef 3d
       -0.140966 -0.12783763 -0.49678764 0.117128395
000350 66 54 49 be 9e 86 62 be f2 2d 16 be 89 88 31 be
       -0.19661102 -0.22121665 -0.14665964 -0.1733724
000360 2c a6 58 3e 77 dd 10 3e 94 7d 10 3e fc ef 98 3d
       0.2115714 0.14146982 0.14110404 0.074676484
000370 cc e8 8b be 06 82 25 3e 6c b9 ef be 32 4b 57 be
       -0.27326047 0.16162881 -0.46821153 -0.21024778
000380 a0 8e cb be 67 23 b1 bd bc 9a 0e bd fb 92 12 3e
       -0.39757252 -0.086493306 -0.034815535 0.14313881
000390 47 4d de 3e da 66 6a be 5b 7f a7 3b 74 c1 a4 be
       0.43418333 -0.22890797 0.0051116175 -0.32178843
0003a0 ec 1b 85 be e2 79 08 3f 51 2d 0e 3d ca e7 35 be
       -0.25997865 0.5331098 0.034711186 -0.17764202
0003b0 ea fb 2a 3e 1c aa bf 3e 89 0e 25 3d a8 f7 b3 be
       0.1669766 0.3743447 0.040297065 -0.35149884
0003c0 cf b9 91 3e 1e a3 6a 3e 47 ed 63 3e 9a de 13 bc
       0.28462073 0.22913787 0.22258483 -0.00902524
0003d0 32 41 f2 bc af 42 a3 3c fd 78 1d 3c 0e ee 1b 3e
       -0.029572103 0.019929258 0.009611365 0.1522753
0003e0 73 1b 15 be 85 b5 b1 be 3b c0 9e 3d 27 b7 04 bf
       -0.14561252 -0.347088 0.07751509 -0.5184197
0003f0 13 6c 98 be 05 ee a8 3c 13 c7 11 bf de e2 2a be
       -0.29769954 0.020621309 -0.5694439 -0.16688105
